dataset/output/model.pth (torch, 68603 bytes, 8 tensors)

weight f8 [2, 1, 39, 32]
0.001533143916073996 -0.00031303575230070115 0.03016778335956562 -0.039672067004907954 -0.010397492648167521 -0.006090685624867031 -0.05691296790157893 0.028909886772179712
-0.03135729651747806 0.01669465158666977 0.007937769784626875 0.03265426680597976 0.0960184975585074 -0.023053367774461764 0.021716936733931023 -0.0002801122097855974
-0.026591565695821478 0.00041872468194294513 0.0063725167785355285 0.006179037048470251 0.05283174240159373 -0.030697395732379888 0.04188411867592539 -0.034988207602683896
-0.02338873402774368 0.010566964234498981 0.018903345006163735 -0.012293809937490846 0.03834794780676273 0.010293324851809952 0.010680193220475614 0.018418141405263495
0.008825012461017646 -0.011227268381451244 0.025517783391888715 0.02467452482744311 -0.03498851661451972 0.05310902120208348 -0.006866021990948508 0.020733821908217483
-0.008558147923651241 0.04504974468349924 -0.010305079620142774 0.04164564575923499 0.08779118727643334 -0.00972413170108445 0.033509361910999146 0.048662930451217966
0.013195097326884371 0.053399900616566694 -0.02124220561052076 -0.008589919590259022 0.05363149692470608 0.0005103056499959564 0.0874324504857938 0.031175994035659144
0.008290625536059432 0.0164091096169516 0.01441394125625655 0.04264520876485479 0.016618455124568585 0.012254924238541198 0.011526904328965158 0.014172894579708592
0.012294910093878217 -0.09196161249610703 0.02986501144879567 0.018992449210276582 -0.019356570945266566 0.061771104673285324 0.01466715483937611 0.02825933320591717
0.01478892856763956 0.06202673904827511 0.015525682377104853 0.03916068458863405 0.051369466779848445 -0.0008912651258490304 0.04172114465536378 0.05041600336320945
0.008604390198778167 0.04193413185477589 0.05797258904213516 -0.006352921759649832 0.031185436400240327 -0.033565347622987934 0.09695799717240491 -0.03130650875466554
-0.0015613147121187189 0.03530529537356634 0.03603793677897757 0.04993320833873545 0.03621402864562101 -0.02850131670658 0.009207472373733644 0.019537981318850005
0.010329121666178406 -0.03978549198008049 -0.008502381750992462 -0.0006675456859669186 2.0947109134474408e-05 -0.008537590083089403 -0.025563717741799486 0.06606260105845534
-0.016923922853277665 0.018669130053987622 0.011086466609261167 0.05333098079841903 0.09028899228418563 0.003916428594770716 0.04655302179476365 0.03977269632341492
-0.05550812066975907 0.03838014194352079 0.0375876161404432 0.010309316475880683 0.07119553259741339 -0.06256317940503492 0.06898020821529231 -0.00620999399006654
-0.01889560853982618 0.0020813784798149656 0.01530778334490126 0.04468209581559062 0.03378388488561158 -0.037987449613209615 0.018777746752596716 0.017607970662161368
-0.016430909373222866 -0.01630603283556896 -0.0054363036118307215 0.02750459108728558 -0.04479440378466086 0.008180348473103966 -0.07288779760831147 0.02705620726059219
-0.04059174526047213 0.020425846218035983 0.002448618617705585 0.04391831466908785 0.07264282405281819 0.006202816341239315 0.05522796925081205 0.019328767408296386
0.007586004988251403 0.02839975727662663 -0.014672938897825866 0.0005384078185115494 0.05429155592201665 -0.08024867238649111 0.09161216459953749 -0.05987406214524298
-0.058370349308838096 0.004331339856582211 0.04311016329610491 0.034227957989307556 0.04380034215780579 -0.03204124541263613 0.0319332758275432 0.0393283498955511
-0.07516303674519424 -0.05153885135079549 -0.005957706114604775 -0.06200907848916241 -0.061226540226438725 -0.030264069299590766 -0.05582707322141652 0.00901548670537791
-0.05933783585575261 0.05298721067795454 -0.0037578648307106614 0.0015882163894827014 0.07854980846269881 0.016456737209558463 0.06020873935989929 -0.06738783714327959
-0.02662311739404964 0.03183830867063479 -0.04670967985256395 -0.007525389928133754 0.05840685384926399 -0.10846302512860759 0.05567263188306158 -0.052016055658079284
-0.06597071012775796 -0.007136809610700842 0.041253939945513594 -0.002512184851152408 0.05514917110445855 -0.07115936467243887 0.04231249392351415 0.027946965029143383
-0.07960398187889692 -0.05595867108745394 -0.11223459827739062 -0.06451070603891167 -0.05430472676172294 -0.07032492202808174 -0.09593187975075035 -0.12313113967778924
-0.05357412633657269 0.08063493319449246 -0.09476735137829038 -0.10867761061791106 0.07075408464999183 0.026654105198875434 0.061943005123006815 -0.05600586990843068
-0.046170281581309404 -0.02907469964405753 -0.08986943922402493 0.010956376798448353 0.07105710923779425 -0.09922708385175535 0.07650549358037069 -0.12598089095262544
-0.059161815563179905 -0.0972428845878341 0.024281391677173983 -0.06444758172543677 0.051916215356060336 -0.07038697939899295 0.04364116097866266 0.062186579218956525
2.7411340581930492e-05 -0.00010967320020200525 4.813086241291533e-06 -3.7984248271514134e-06 -9.360783543890188e-05 0.00011778430325650228 -4.10419587874149e-05 4.633233629922927e-05
3.2906779705426085e-06 -1.0310223665461516e-05 8.637274916858882e-06 0.00010075490431251391 1.6517647938278902e-05 2.1974045121319492e-05 -7.814602316478085e-05 -8.125455936981213e-05
-9.804187821221202e-06 -4.724037777956381e-06 -7.05604603989594e-05 -0.00018816999866318613 0.00020165428348906429 2.2174176378636697e-05 -0.00020263452722102024 2.4515559044928715e-05
0.00020215234126527232 1.2992291763114852e-05 7.77061832638279e-05 -5.0221523840323406e-05 0.00019064198372414277 -9.19210676520254e-06 -0.00016856333834328667 -9.595669617923768e-06
00000000: c4c0 b1be 781e 593f 4a71 9051 de83 34bf
00000010: 6547 b0ab 4de4 9e3f 1a9c b3ac e54f a4bf
00000020: 5c01 13d7 474b 85bf ffb5 1af9 8bf2 78bf
00000030: 7c0e b64f b223 adbf f2cb dea8 8d9a 9d3f
00000040: 8b2c 1146 100e a0bf 8fd9 541a 6718 913f
00000050: 3073 066d ad41 803f 6759 0360 0fb8 a03f
00000060: 0d29 d312 ab94 b83f 40ab 9d52 4d9b 97bf
00000070: 1988 2af4 f63c 963f 7cc5 bdc7 805b 32bf
00000080: eb4c 0dc4 d13a 9bbf 3c11 a2d0 0871 3b3f
00000090: d728 8372 111a 7a3f 1d07 b4a0 304f 793f
000000a0: f26f 9c1b c30c ab3f aec5 f85a 236f 9fbf
000000b0: e7a8 decf d571 a53f 1862 cc6e f9e9 a1bf
000000c0: 85db f95e 37f3 97bf 7cff 70ee 21a4 853f
000000d0: bb8d 5802 665b 933f bd83 ff3c 7f2d 89bf
000000e0: fcc3 659b 57a2 a33f 6253 d8ac aa14 853f
000000f0: 7075 c644 7fdf 853f 7270 f48b 34dc 923f
00000100: 8741 411f d912 823f 308a 2c74 52fe 86bf
00000110: c3cd 8974 5521 9a3f 367c b654 4744 993f
00000120: ad98 30cd 03ea a1bf 5efc 5e0a 1b31 ab3f
00000130: 55d1 79be 8b1f 7cbf 9f49 113c 3f3b 953f
00000140: a840 922b ef86 81bf e5b1 3798 c210 a73f
00000150: 2509 9c5f d41a 85bf cc09 1dfd 9352 a53f
00000160: eab2 3ab6 7b79 b63f c7f0 1add 3eea 83bf
00000170: dbfe 089b 2328 a13f b389 a1fd 58ea a83f
00000180: f15c e4fb 0706 8b3f e9fe 8355 3b57 ab3f
00000190: 3081 9149 84c0 95bf 8734 b97d 9797 81bf
000001a0: 877e a76a 9675 ab3f c9f6 f109 c1b8 403f
000001b0: 6514 721b f961 b63f d5ba 368b 99ec 9f3f
000001c0: ca78 53ec acfa 803f 3628 a5b4 8ccd 903f
000001d0: 9cac 6a72 0e85 8d3f 21c9 f3c1 97d5 a53f
000001e0: 198c 14a5 6d04 913f e651 8e16 1c19 893f
000001f0: 6cab efe8 6a9b 873f 7810 adb5 ad06 8d3f
00000200: d86f 15e6 122e 893f 1980 28d6 cb8a b7bf
00000210: f274 defd ee94 9e3f ac93 eab0 c172 933f
00000220: 45c4 b07c 35d2 93bf f6b0 d154 76a0 af3f
00000230: cf47 e232 d009 8e3f d068 b4bf 03f0 9c3f
00000240: 34bf 5364 a849 8e3f 5936 61ff f7c1 af3f
00000250: 0c45 76d0 edcb 8f3f 3bbe 3187 de0c a43f
00000260: 5131 aa47 194d aa3f 18b0 a648 7934 4dbf
00000270: dc64 b14f 795c a53f 78af 475b 20d0 a93f
00000280: dad3 0bb4 2d9f 813f 3e09 cef9 6378 a53f
00000290: da36 004c 95ae ad3f e660 1173 8505 7abf
000002a0: 2955 cd35 13ef 9f3f 34a3 a32c 7a2f a1bf
000002b0: 86ee f042 3dd2 b83f dda6 811e 6807 a0bf
000002c0: bee7 25e8 a094 59bf d59a 0222 8913 a23f
000002d0: 9c15 c37f 9073 a23f ca33 9971 d890 a93f
000002e0: 68f2 6029 a58a a23f 8c3e 97fc 722f 9dbf
000002f0: 7dc5 ca05 5edb 823f 2662 2dbb c301 943f
00000300: cb68 053e 6f27 853f 4bc6 d195 c35e a4bf
00000310: ae0d 785c b269 81bf 2d6b e571 c7df 45bf
00000320: 1082 fc60 f2f6 f53e bd55 8cf1 277c 81bf
00000330: 2d2b a90e 602d 9abf 13e6 0887 7ae9 b03f
00000340: 140d b33c 8154 91bf 7f49 1b1c 001e 933f
00000350: 05aa 1e5c 80b4 863f e11e c9c4 324e ab3f
00000360: c0a3 0ced 2d1d b73f 8de0 b44b ac0a 703f
00000370: 85e7 4634 ccd5 a73f 6b32 f73b 165d a43f
00000380: 6fc9 e075 8f6b acbf 5f30 eddc 8fa6 a33f
00000390: a898 1d1c af3e a33f 613a dd08 0d1d 853f
000003a0: af8f 20d4 de39 b23f cc78 7af9 2304 b0bf
000003b0: 9b1f 5bda afa8 b13f b0f4 8791 a66f 79bf
000003c0: fdc4 ddd2 5e59 93bf 4c7f 0b90 f70c 613f
000003d0: cd8e b9e6 af59 8f3f 5749 7d58 92e0 a63f
000003e0: 015a 6e11 1f4c a13f ca8e 7e4b 1773 a3bf
000003f0: 07a7 c740 793a 933f 2457 92e8 d207 923f
00000400: 392b 9ba9 43d3 90bf dc6b 0657 87b2 90bf
00000410: b841 95a3 6044 76bf 4dc7 d6dc 292a 9c3f
00000420: 460e 99c6 4aef a6bf ea7f 4bc9 dbc0 803f
00000430: 7b52 0153 c6a8 b2bf 7927 5a55 9fb4 9b3f
00000440: 8c38 c3f4 70c8 a4bf 7a94 ff55 83ea 943f
00000450: aafe 441c 200f 643f 87f9 651a 767c a63f
00000460: 488f 9859 b898 b23f 016d 42d5 1f68 793f
00000470: 4c72 8323 d746 ac3f a6ff 8f9f ebca 933f
00000480: be2f 4fb5 8012 7f3f 0eab de72 d314 9d3f
00000490: 5073 9e85 d80c 8ebf ce2f 78fc 7da4 413f
000004a0: d49d 4452 1acc ab3f a688 724f 2d8b b4bf
000004b0: 99eb de12 e573 b73f 47c1 9525 d0a7 aebf
000004c0: 1ed4 acea b7e2 adbf 9f96 8230 bdbd 713f
000004d0: 6ac7 f60a 8912 a63f 508b 58b0 5386 a13f
000004e0: 4c26 3e9a ff6c a63f 563c 57ca b567 a0bf
000004f0: 5ab9 aaee 8e59 a03f 8dcd 3671 d822 a43f
00000500: bb4b b080 e23d b3bf 3fd6 0ce2 4c63 aabf
00000510: fd14 be8e 1b67 78bf 7504 5568 a7bf afbf
00000520: c4ed d6c7 1559 afbf f6df 8a4f 8bfd 9ebf
00000530: 9b4c 6fbb 5d95 acbf cffb 7424 b676 823f
00000540: 64ed d460 8761 aebf c1a7 efc1 2321 ab3f
00000550: 7442 9f51 d0c8 6ebf 0948 ea5c 7605 5a3f
00000560: a350 741a d71b b43f 6ba7 74f0 08da 903f
00000570: 38e3 f70c aed3 ae3f 1ab6 ad4c 5440 b1bf
00000580: bb9c 192a 1743 9bbf 362b 005d 1c4d a03f
00000590: 452d bfc6 54ea a7bf dc80 187a f1d2 7ebf
000005a0: 8a28 4ace 80e7 ad3f 1eaa c099 3bc4 bbbf
000005b0: 5ea3 708a 1f81 ac3f 1b34 d633 d9a1 aabf
000005c0: 1c1c 7eda 74e3 b0bf 7d06 03be 7c3b 7dbf
000005d0: 7b54 cb85 3c1f a53f 94df def8 6e94 64bf
000005e0: e81e 971c 833c ac3f cf7f 1208 8037 b2bf
000005f0: d635 3ab3 fba9 a53f 9b5e 4a13 219e 9c3f
00000600: fe1d cd32 ed60 b4bf b718 7f6c 9da6 acbf
00000610: 5bc2 1419 68bb bcbf a3d2 ad0c c683 b0bf
00000620: 016d eb42 d4cd abbf 0251 3468 d000 b2bf
00000630: e85b 2cde fd8e b8bf 420a 09ba 8585 bfbf
00000640: 1501 0e61 116e abbf 1149 fcb0 7da4 b43f
00000650: d7f6 e552 ac42 b8bf 424e 69bf 4bd2 bbbf
00000660: 3c50 a18f f01c b23f 5a83 88b8 364b 9b3f
00000670: c744 705a feb6 af3f 1c0f 4827 cdac acbf
00000680: fdae e092 a1a3 a7bf a5f1 7210 c2c5 9dbf
00000690: 2286 60fe ae01 b7bf 6083 4100 4c70 863f
000006a0: ad1a 5378 cc30 b23f 264f 0538 f266 b9bf
000006b0: 155c e430 dd95 b33f f8fe 474f 2420 c0bf
000006c0: 611c 081e 754a aebf 9dcd 12e1 e8e4 b8bf
000006d0: 748b 9e9c 38dd 983f 6a29 d1ff a27f b0bf
000006e0: f838 2c1e c394 aa3f f738 958e e104 b2bf
000006f0: 205e 535e 2258 a63f 4eb6 fd57 ebd6 af3f
00000700: 0782 3efb 2cbe fc3e f691 823b 0bc0 1cbf
00000710: 6421 6b12 0330 d43e 483b e121 0edd cfbe
00000720: 3966 105e ea89 18bf f004 00ec 5ee0 1e3f
00000730: 4cc7 4ef7 8e84 05bf ec34 06f4 9e4a 083f
00000740: b874 8f58 ad9a cb3e 06c2 c359 429f e5be
00000750: d81f 8206 1a1d e23e 9c65 6313 8c69 1a3f
00000760: b2de 8b1f ec51 f13e 6a32 ece1 9c0a f73e
00000770: 2a59 8974 4a7c 14bf 8b02 59b3 e64c 15bf
00000780: f2a4 5450 958f e4be 3af4 e19d 65d0 d3be
00000790: 07f6 ad7a 3b7f 12bf 9eba 0efb efa9 28bf
000007a0: 7560 f91a 656e 2a3f 6d13 3ccc 5540 f73e
000007b0: 789f bc55 498f 2abf 3685 b363 d8b4 f93e
000007c0: 524b 9b63 1b7f 2a3f 0a1b aefb 2e3f eb3e
000007d0: f7d6 3110 c65e 143f 26a1 6a6b 9e54 0abf
000007e0: 17a7 b12b e2fc 283f 2e08 b588 f946 e3be
000007f0: e3e4 0c0d 0c18 26bf c24d 47ca a21f e4be

bias f8 [32]
-0.11632196868604334 -0.004030836850457685 -0.039732589510316656 -0.04681132296410265 -0.06540432585897211 -0.05604339142069054 -0.07452776070418791 -0.02978666724786181
-0.07024427411919068 -0.04936817964253074 -0.049895901276624896 -0.08096465881935183 -0.06719857119256888 -0.02891329523174152 -0.05161733228740923 -0.07592850068628834
-0.07152874470993137 -0.0005365162743759974 -0.07842314547997126 -0.013146625855527125 -0.07144930713730588 -0.06824622230630727 -0.06772932910660873 -0.08491689399243808
-0.07400945274307251 -0.06449923886604203 -0.029964276152407147 -0.06356621486615663 -0.05281676473342939 -0.05943240096185529 -0.05760747646627406 -0.03738080935671031
00000000: b519 50cb 46c7 bdbf 7ef0 2b87 a382 70bf
00000010: df7c 1079 d457 a4bf 9437 6d5a a7f7 a7bf
00000020: 55ca 9480 56be b0bf 191a 9e2a b8b1 acbf
00000030: a35c de56 4014 b3bf dadf be66 6580 9ebf
00000040: 22bc 125c 87fb b1bf a531 0e3a c946 a9bf
00000050: 5e06 60a0 f48b a9bf 44cb c291 19ba b4bf
00000060: af29 9cf1 ec33 b1bf 107b c265 729b 9dbf
00000070: 6991 2944 966d aabf 0a2c 48db 0c70 b3bf
00000080: 64ca 4033 b54f b2bf 976f 15ed 9f94 41bf
00000090: 4cff 150d 8a13 b4bf a561 d140 9eec 8abf
000000a0: ae01 7a75 804a b2bf 1792 e19c 9578 b1bf
000000b0: 0c2f 7e95 b556 b1bf c14e 9312 1dbd b5bf
000000c0: bb58 2093 48f2 b2bf 38ea 8ba9 0583 b0bf
000000d0: ded9 7d88 f4ae 9ebf fe0b fb1d e045 b0bf
000000e0: 78d4 6b8a cc0a abbf 2d69 e874 ec6d aebf
000000f0: 4f00 db26 ba7e adbf 03c3 5ed3 9323 a3bf

weight f8 [2, 1, 39, 32]
2.8878370816478283e-05 0.00010513331803958069 3.418888530524667e-06 -0.00019111311409737613 -2.966910662031258e-05 -7.5395220533927e-05 -3.0944267295762173e-06 3.7604852463875586e-05
-1.3365662849555543e-05 -6.867071632813469e-05 0.0001199628379042024 -0.00016804299326676945 6.922863839523607e-05 -2.530790584471239e-05 -0.00014046128744638414 -0.0001938672658357034
-0.0001967276200019699 -0.00017873249690129932 3.7392050830497726e-05 8.286037199646616e-05 7.326957945201757e-05 0.00019855512110110915 1.7149000011388017e-05 6.700262161853071e-06
-0.00019332300424866944 -1.6814061835014467e-06 -1.7340541938492736e-06 -5.875638880673559e-05 -1.1763612115189694e-05 1.732258078533395e-05 0.00010341025009444059 3.494883726222397e-05
-4.5880064919457635e-05 -7.279775951507324e-05 3.821269747928112e-05 7.312445064957899e-05 -1.9255280388183853e-05 -0.00012596264609902646 2.2321506493685296e-05 0.00010751869686682597
-5.722207955312904e-05 -0.00018966185081046162 -7.324948886954118e-05 3.117814602693702e-05 6.0206366217065044e-06 -0.0002003041323947925 0.00011739926938707548 7.645881900534489e-05
-8.154647355003872e-05 0.0001767391705331459 7.90259671098463e-05 0.0001249266979025615 -3.4915437879765006e-05 6.013043596249745e-06 -5.003610388910004e-06 -2.1235609544781436e-05
0.00014191180399444404 -5.867000133622481e-05 -5.82830976877921e-05 -3.379456404807615e-05 0.00020408470990400702 -0.00010742474177682254 0.00012977392143744137 1.607317175606356e-05
0.00010430730211607702 4.248527370950143e-05 -1.0221492349749128e-05 3.104042454393078e-05 0.00020027732550763198 -0.00019327971082494074 -0.0001490536328782832 0.00011212088511462466
-0.00019184596335219454 -0.00011019122373935822 2.8707592699047016e-06 4.1265236916648645e-05 3.094417526075627e-05 -6.824604156917207e-05 0.00016020255446776507 7.423402646898204e-06
-6.584041836137198e-07 0.0001832386727260667 -5.366744176469914e-05 -1.1334133187504543e-05 -3.9314233038845196e-05 -0.00010637430616257558 0.00010717086744008931 -6.0416074232321433e-05
6.455711074195296e-05 -2.756892949738419e-05 -6.1054090104218515e-06 -4.129336152647363e-05 0.00010722462293229261 -1.3918344018941472e-06 -3.7493548768059174e-05 4.423643119600131e-05
0.00016347245554031305 0.00020416556612930708 5.762735573440704e-05 -3.7467443991571155e-05 -0.0001731485372960111 -0.00012098270720690118 2.455848935042326e-06 0.00013033828173297598
0.00017729588936369407 -0.00020094903034272921 -7.047085477186602e-05 -6.312222356779477e-07 -5.025293153329095e-05 6.214077981128195e-05 2.120773588514383e-05 -0.00015665491773332048
2.6638464543659472e-05 -7.843077304149277e-06 2.6266219575749193e-06 -2.90685580646492e-05 -4.237150348538578e-06 1.7655017073905203e-05 -0.00017352126914576177 0.00020030589255808098
3.0380005387039753e-05 -1.3075682464530458e-05 -9.578558637575109e-05 0.00018297172992998327 1.744804738927899e-05 0.00019860339390429855 0.00010014733804292835 -0.00016218631405872638
-5.990491995504602e-05 0.0001888776240933183 0.0001942420320291281 -0.00018769284436520733 3.706035559127982e-05 -3.2483039336490534e-05 -4.0778329455677235e-06 -5.280770423749882e-06
-0.0001802448905133888 -8.094410544767307e-05 1.686349275248752e-05 -4.086696079683916e-05 -0.000131649975156212 0.0001276105005760663 -5.558952162403871e-05 5.63641020831971e-05
-0.0001950689367641528 -3.3000927375025225e-05 0.00017727651248263828 8.596188062441817e-05 -0.000102723640809152 -5.6903941184763346e-05 0.00017812272803012 5.516253303391918e-05
-0.00015594371183321623 0.00012110868619660157 3.0081314972067043e-05 1.2576651594834544e-05 -2.5064462195117886e-06 -0.00020166884219932453 1.2302030925901939e-05 2.0937440323887696e-05
-0.0001602054215543055 0.00020325227787980316 4.5203934865481205e-05 5.879232199022498e-05 -1.384083981422393e-05 0.0001672843036183268 -0.00019506324887366076 -1.755553636086397e-06
4.037969808086464e-05 0.0001990599145771201 8.293511682242086e-05 8.307326633521185e-06 5.537519201775374e-05 -1.9233789908104882e-05 -1.6715448712286665e-05 2.7409827936569084e-05
-0.00011763540153365627 -4.007523038713111e-05 -0.00014097318016819858 5.9031353759092276e-05 -4.8660465285281105e-06 -0.00010092507027707501 -0.00010851168005744629 1.5237688227782896e-05
-1.13401107963785e-05 -0.00015854285016830705 -0.00011184588005289763 2.1037839745924793e-05 4.351261976283734e-05 -3.2683984514597156e-06 -5.287746798296334e-06 1.5138940997540603e-05
0.000139164837066735 9.410006850677336e-05 -4.958555570001985e-05 -8.849778178876043e-06 -8.799400037273126e-05 -1.963345475238239e-06 0.00018366553723264347 0.00010150458306059744
0.0002023742307795667 -2.0784668932711702e-05 8.187161361082262e-05 0.000165086358622454 0.00010915368351809666 -2.7098664191843073e-05 -1.9308739237996147e-05 -8.533297439439316e-05
1.1927162440999385e-05 0.00016244991200690885 -4.0290697130224115e-05 7.022449112158722e-05 -0.00011200578632784569 -0.00019609810206522185 7.607771308245347e-05 4.501530194023841e-05
9.311358524941948e-05 -5.642054962207161e-05 7.047366065949135e-05 -5.8392641093342895e-06 0.0001729550380660423 -1.986765046359015e-05 7.002874190506237e-05 0.00019348793891233463
0.00011036430589424682 -2.4271112855132966e-05 0.00011989839907007902 8.156643596996296e-05 8.101828588363796e-05 -6.879279483219162e-05 6.557917140751006e-05 2.168504916685281e-06
0.0002032235272963058 0.00010033847204299183 -3.395987627504796e-05 0.00017144371444542046 8.369536816308328e-05 2.8266758291542046e-05 6.494254579597814e-06 8.062014870077451e-05
1.4666612277540161e-05 -0.00019448663368590438 -3.9718955551205295e-05 0.00020397309393794554 5.916385557698206e-07 3.23976974185554e-05 -5.826883272528479e-05 0.00013090009021439562
-0.00010308840743835287 -3.630392092850093e-05 0.00018898117096690807 -1.7413853237134355e-05 0.0001189972175918171 -8.111713022113332e-05 -5.842052821226712e-05 2.740724533655894e-05
00000000: 9a28 1088 fa47 fe3e e2d1 9aa6 608f 1b3f
00000010: bbbc c0d8 01ae cc3e dd51 5726 b10c 29bf
00000020: bfa7 6f7b 3d1c ffbe 0a87 9f06 b0c3 13bf
00000030: 42f5 d115 3bf5 c9be f8d0 5be4 3cb7 033f
00000040: d4a2 e9b6 a207 ecbe c1a9 5cec 6900 12bf
00000050: 15eb b4dc 9172 1f3f 434e 2052 9606 26bf
00000060: ba09 90f3 da25 123f 3ac6 030c 8a89 fabe
00000070: 8170 9945 1969 22bf 5820 1022 1b69 29bf
00000080: 66cb 6463 15c9 29bf 1476 3575 446d 27bf
00000090: 926c 6515 ad9a 033f 34c4 f759 aab8 153f
000000a0: c16c 47ca 0935 133f af6e cf80 6706 2a3f
000000b0: 4f10 ad4e 66fb f13e df9f fd09 5a1a dc3e
000000c0: 7b0e 2df6 d756 29bf e89b 57a6 9535 bcbe
000000d0: 4828 d4bf b417 bdbe 40d3 9725 26ce 0ebf
000000e0: acff c489 8aab e8be e0ec f1af fe29 f23e
000000f0: 32e7 a391 be1b 1b3f 8d97 93e7 c052 023f
00000100: 7580 e506 eb0d 08bf 6a5f 40fc 5f15 13bf
00000110: 8741 a849 d208 043f 6f47 0e7f 4c2b 133f
00000120: a423 edca cc30 f4be ac45 1ae4 9a82 20bf
00000130: 284f 073f e267 f73e 1f33 a225 752f 1c3f
00000140: 1d6b acae 3700 0ebf 988c 9fe4 fedb 28bf
00000150: 7a7c f6a2 b033 13bf 1c82 b6f0 a858 003f
00000160: ca33 38fe 9b40 d93e a8be 5165 1741 2abf
00000170: e74c 2217 88c6 1e3f 346a 2b82 100b 143f
00000180: 4655 7dbf 7d60 15bf 165b 2bea 612a 273f
00000190: cd1f efc6 57b7 143f 4853 ed29 d85f 203f
000001a0: c964 804f 454e 02bf 4abb 8dd6 7438 d93e
000001b0: 4a02 6cf3 95fc d4be efdc e0f9 6344 f6be
000001c0: 4c9b 381d c599 223f 04d3 5de5 8dc2 0ebf
000001d0: 8e5e e2fc 9f8e 0ebf 3508 0361 d4b7 01bf
000001e0: 7576 2e4f f2bf 2a3f 101e c702 2729 1cbf
000001f0: 3582 347f 7d02 213f 1445 dbf3 9bda f03e
00000200: 1e7f 27ce f157 1b3f 0e6c 9fe3 4646 063f
00000210: 4800 2336 9f6f e5be fdbb bcdd 2c46 003f
00000220: cadd 5920 3140 2a3f 5f2f ee12 6455 29bf
00000230: 5c1b 06f5 6889 23bf 20ab 9923 4e64 1d3f
00000240: 452f e546 4825 29bf a604 1fcf cee2 1cbf
00000250: a8b4 5199 e814 c83e 4896 80be 86a2 053f
00000260: 8cd0 16c4 4139 003f d21b 0511 eae3 11bf
00000270: 829a df76 81ff 243f 5091 c961 d122 df3e
00000280: ec6b 7f1c a617 a6be 4e1f a436 7804 283f
00000290: a3b6 0642 1f23 0cbf 46a0 5f67 f7c4 e7be
000002a0: cf0c e8c2 aa9c 04bf 82e4 16aa a8e2 1bbf
000002b0: 2e0a a37b 1d18 1c3f 7eef fb80 e8ac 0fbf
000002c0: d064 aab7 5aec 103f 446c c368 7ae8 fcbe
000002d0: 0c1f c10c a29b d9be 3cc0 2f19 4da6 05bf
000002e0: 28b4 cafe b81b 1c3f f0b5 db1b e259 b7be
000002f0: 7d50 b286 4ca8 03bf 8c41 c533 5031 073f
00000300: 3416 60b3 396d 253f aeba e6db a8c2 2a3f
00000310: 4ae9 a9dd 9c36 0e3f 7e7b a792 cba4 03bf
00000320: fcc1 2d9c e6b1 26bf 89d1 5515 03b7 1fbf
00000330: f8e0 e53a e599 c43e b997 9e50 6d15 213f
00000340: e814 d317 103d 273f 4a7f e706 bb56 2abf
00000350: 98c3 f610 3879 12bf c063 2c60 282e a5be
00000360: 55cd 6794 d558 0abf 7ea6 d877 324a 103f
00000370: a5b4 4583 e83c f63e 3631 317f 7788 24bf
00000380: 068c 3058 b5ee fb3e 32cf 3056 b872 e0be
00000390: 4305 2bb1 a008 c63e da26 8419 087b febe
000003a0: 182a eb04 9bc5 d1be 5c42 fb88 3b83 f23e
000003b0: aa36 2f5a 68be 26bf 0596 f583 2641 2a3f
000003c0: fd95 cc12 12db ff3e a4bf 251d f46b ebbe
000003d0: 0353 f9d7 0f1c 19bf 3f80 3931 83fb 273f
000003e0: 1ab3 c8af ac4b f23e 46bd d329 0608 2a3f
000003f0: df11 ad2a c640 1a3f 2eef 58d4 1142 25bf
00000400: 329a 6960 4d68 0fbf 60a9 d56f aec1 283f
00000410: 3742 a359 ae75 293f 33e8 a841 ed99 28bf
00000420: 8d8d 371f 286e 033f 08d7 a5bb cc07 01bf
00000430: 3e8d 582f 8a1a d1be 3484 021f 2f26 d6be
00000440: 14f1 eed1 03a0 27bf a1fe 8e24 1138 15bf
00000450: 9244 dc65 c2ae f13e 6b34 b414 126d 05bf
00000460: 3f1b f6ac 7041 21bf e95d 6bda e5b9 203f
00000470: c8dc 436b 1925 0dbf c27a 09cd 0f8d 0d3f
00000480: 1e53 6168 6d91 29bf af85 023b 4f4d 01bf
00000490: 3acb 9ca5 693c 273f 970c 2bdd cd88 163f
000004a0: 358f 11b6 aaed 1abf 71ce fd87 84d5 0dbf
000004b0: 45d5 4795 ce58 273f 802f e833 caeb 0c3f
000004c0: 07db e048 9a70 24bf 1796 ca62 77bf 1f3f
000004d0: 0204 7339 e48a ff3e 7d21 58d5 0960 ea3e
000004e0: 66bd a161 8d06 c5be c1a3 ea29 e26e 2abf
000004f0: a795 8b41 9acc e93e acc0 78f1 59f4 f53e
00000500: 83d6 a917 9aff 24bf f435 cdc5 03a4 2a3f
00000510: 40ee 0b60 2bb3 073f 33b6 37cd f8d2 0e3f
00000520: d0aa 0b8a be06 edbe be0d f239 21ed 253f
00000530: 1aa3 938c 3c91 29bf 00ec d4a2 0b74 bdbe
00000540: 5628 87dc ab2b 053f 783d 67a5 5717 2a3f
00000550: 8558 3075 aebd 153f 8e57 5647 f66b e13e
00000560: da5c 1c1c 5508 0d3f 4510 67fa 072b f4be
00000570: 20fc 8fe3 0487 f1be 046c 8108 c5bd fc3e
00000580: 6523 4ccf 60d6 1ebf 9e22 5f6e ce02 05bf
00000590: 7457 9965 467a 22bf dc4f e4de 0df3 0e3f
000005a0: 3796 52af e068 d4be 460b 3781 f774 1abf
000005b0: f103 e477 1872 1cbf fe42 61ec abf4 ef3e
000005c0: 1ad2 c9f5 2cc8 e7be cf87 85b6 d0c7 24bf
000005d0: eb49 8c96 d951 1dbf 576d c856 4d0f f63e
000005e0: 07ea 123b 2ad0 063f febc 000d d56a cbbe
000005f0: 64bf b9c5 ac2d d6be 969d 1635 a8bf ef3e
00000600: 5a9a 10d9 983d 223f 21a9 fddd f2aa 183f
00000610: c0c8 7eb8 42ff 09bf 3865 5940 308f e2be
00000620: 325e 566a 2d11 17bf b975 f596 4078 c0be
00000630: 8637 9ef3 ca12 283f ab06 6475 db9b 1a3f
00000640: ea07 cf67 8d86 2a3f 2a61 bc92 57cb f5be
00000650: 027b 999c 4f76 153f 2601 c905 61a3 253f
00000660: e68d f800 2e9d 1c3f 679f 0406 3e6a fcbe
00000670: c83b f574 263f f4be 5440 5156 995e 16bf
00000680: 92be 49b9 5803 e93e e895 5d1e ea4a 253f
00000690: 6116 e3cf b91f 05bf a0dd 2b92 af68 123f
000006a0: 375b c8c1 945c 1dbf d49f cfde f5b3 29bf
000006b0: 9155 9828 7df1 133f 9803 4aff d999 073f
000006c0: a81a be36 bf68 183f 0900 d752 a394 0dbf
000006d0: 4861 6345 6879 123f cca9 4bb2 dc7d d8be
000006e0: 7f42 df76 68ab 263f 478d 388b 2ed5 f4be
000006f0: 4437 03a0 8c5b 123f d148 56bd 605c 293f
00000700: 5715 7d56 6cee 1c3f 7c3e da2c 3a73 f9be
00000710: ec94 b7cf 3e6e 1f3f ef10 24b3 d461 153f
00000720: e3ef 908d 0b3d 153f 1f02 4d37 9b08 12bf
00000730: 3488 0296 f130 113f 1ee1 752f d430 c23e
00000740: f191 99ce 0ca3 2a3f 8cef e5d2 994d 1a3f
00000750: 54ed bc76 04ce 01bf 196d 154b b278 263f
00000760: 7ef9 f179 b3f0 153f b9c2 bcd6 cca3 fd3e
00000770: 46e7 221b 273d db3e 2cd7 b79b 5322 153f
00000780: b7d5 a7d7 13c2 ee3e 328c 5e76 e37d 29bf
00000790: 0bfa c5eb fcd2 04bf 3d91 1389 33bc 2a3f
000007a0: 08b2 69f1 22da a33e 21ef 3268 58fc 003f
000007b0: 0374 f2d8 b58c 0ebf 200a 8936 4728 213f
000007c0: 5e65 ab5a 2506 1bbf a6d7 8e39 a108 03bf
000007d0: 6e53 d1e5 27c5 283f c1d7 e5e1 7e42 f2be
000007e0: 8828 a9a1 c431 1f3f a450 8faf ad43 15bf
000007f0: e1c6 8f10 12a1 0ebf 86fa ec8e 13bd fc3e

bias f8 [32]
0.0 0.0 0.0 0.0 0.0 0.0 0.0 0.0
0.0 0.0 0.0 0.0 0.0 0.0 0.0 0.0
0.0 0.0 0.0 0.0 0.0 0.0 0.0 0.0
0.0 0.0 0.0 0.0 0.0 0.0 0.0 0.0
00000000: 0000 0000 0000 0000 0000 0000 0000 0000
00000010: 0000 0000 0000 0000 0000 0000 0000 0000
00000020: 0000 0000 0000 0000 0000 0000 0000 0000
00000030: 0000 0000 0000 0000 0000 0000 0000 0000
00000040: 0000 0000 0000 0000 0000 0000 0000 0000
00000050: 0000 0000 0000 0000 0000 0000 0000 0000
00000060: 0000 0000 0000 0000 0000 0000 0000 0000
00000070: 0000 0000 0000 0000 0000 0000 0000 0000
00000080: 0000 0000 0000 0000 0000 0000 0000 0000
00000090: 0000 0000 0000 0000 0000 0000 0000 0000
000000a0: 0000 0000 0000 0000 0000 0000 0000 0000
000000b0: 0000 0000 0000 0000 0000 0000 0000 0000
000000c0: 0000 0000 0000 0000 0000 0000 0000 0000
000000d0: 0000 0000 0000 0000 0000 0000 0000 0000
000000e0: 0000 0000 0000 0000 0000 0000 0000 0000
000000f0: 0000 0000 0000 0000 0000 0000 0000 0000

weight f8 [2, 1, 39, 32]
-0.007505933246999821 0.01645789015779712 0.03925653866922609 -0.018010417492093866 0.02451462805969987 0.011447418331611793 -0.015131061712265187 -0.037414657603291976
-0.02217022586811926 -0.013835301919096451 -0.002274314873399467 -0.02032079712137602 -0.057417964263106074 0.05256725696274903 -0.047854315900035416 -0.01453354752438027
0.00030613055557068424 0.05951011241556105 -0.04707082939763056 -0.001077705545879193 -0.05592132692892821 -0.046006844748883405 -0.08947473287219883 0.013640214923240399
0.022646393583036356 -0.012537424949359804 -0.012496432054272585 0.019922288819046938 -0.06432467618532738 0.02796328722781123 -0.014946066381990884 -0.04851729197854821
-0.029178965211122426 0.04235934998654102 0.049355204109632816 -0.023210525460638252 -0.04691262383361682 0.0033277843981945 0.01573537499275963 0.0021022012898263246
0.020513805686918508 -0.059578470203778815 -0.0035074989953080343 -0.002742902441227077 -0.014668354576539722 0.008874393570043907 -0.03326744643707746 -0.0481375435862748
0.009047192184228324 -0.02530061723528235 -0.016768932534902303 0.02661098118864774 -0.039379905228539375 -0.0675155418707376 -0.03346909462984674 -0.026836518918233104
-0.04362623959372228 -0.03011419785286784 -0.0780052177268147 0.013341379553750261 -0.03252002181114704 -0.015192600285998076 0.006323414661835221 -0.06395030107110714
-0.05683983428669652 0.04168767510288377 0.01731462751939203 -0.0026675057863831207 0.02270588165294992 0.03658644880668772 -0.007315913146110981 0.00535821341908666
-0.038999587374889066 -0.0632080017675401 -0.00905608967229949 0.02448974802294321 -0.08028873937005127 -0.03335889110797188 -0.06945803347956507 -0.025125324944001274
0.0052301963099706545 0.03040694161442827 -0.0046232153377714896 0.021076115871756756 -0.0328881144453801 0.027883225907916184 -0.0706318033894011 -0.023764051337678997
-0.02960455706522303 0.04510058729488539 -0.011318390542336581 -0.024507293535287706 -0.07101040002998056 0.008318503329211387 0.040405223333190715 -0.011368389902898608
-0.03076275413176448 0.017996643716918805 0.020813460575560685 0.028322076070533237 0.04822791527418443 0.046215313456552366 -0.010305352740641144 0.012932624164111815
-0.007299552973650093 -0.01977301076934034 -0.0070885925629945385 0.012976565097346047 -0.0859956113514494 -0.04392805985163175 -0.06604476075771253 0.03539804770555208
0.004591084576166046 0.026251795041712257 0.032656102730426705 0.012291287141563427 -0.06782273712108437 0.051394794655087714 -0.01988431462399027 -0.02546719275653176
0.03348628387680925 0.019349020302583467 -0.0667120639977536 0.020928361263537483 -0.027958553879898623 0.023307951442604186 0.0024494526114164743 -0.010227727340739401
-0.012686001762869159 0.01625485695415452 0.07130164596894897 0.052159592186366927 0.06470968330917505 0.026990823272990332 0.05427634898175341 0.05531913547140403
0.04139549466126741 -0.04008668252797514 0.06371382311046704 0.03155122855865416 -0.028269133817814446 -0.05026911073074901 -0.08558361596385569 0.03454525729603012
0.03937890169337902 0.0319021498812626 0.07731598388355927 -0.04318889791193867 -0.10146504928779558 -0.018375526065196903 -0.03439995307259791 0.02335771063497277
0.042440814802259565 0.015125846247922974 -0.018326075843151636 0.0440524169956501 -0.03759827408948549 0.0785805106801927 -0.0905861195053935 -0.021573471234510016
0.09919319774841143 0.014519441535099339 0.055504076620926435 0.05337262408983641 0.07184700705275089 0.07092906774526334 0.09447312270070443 0.04647300094854492
0.027394958494445586 -0.08114399793728591 0.07477779416235142 0.07072769673183804 -0.06617562687638362 -0.05367600746879503 -0.07794211627283036 0.06711399164523942
0.10131243173766039 0.032067809697363635 0.05967866304270037 0.02152267475641437 -0.04347956411855999 0.07100826754833024 -0.09064155631989043 0.009748032968186679
0.03049900110410385 0.0946027830830636 -0.011598158716972956 0.030328821522463585 -0.052313256029084584 0.09257573328357793 -0.07745209572560871 -0.08770189943837836
0.13492558054307544 0.014544976038817504 0.04721229471896172 0.10010770427611104 0.08283496218004095 0.03777319389480877 0.08147217613774962 0.0469693053866332
0.08677327023257761 -0.02886379735635426 0.0387940168629883 0.10854886464463086 -0.029243716251801784 -0.045230957590629936 -0.06732929334364987 0.09213448475808031
0.11255001618815473 0.04943738554083202 0.10829512691971648 -0.06257834695855939 -0.11434032514214901 0.07460102182126462 -0.0565110780552073 0.08327263631618409
0.08869977311890054 0.05324984758955089 -0.05225692784912566 0.09309211509543733 -0.04920117814601357 0.07276815467909532 -0.08016834555261373 -0.060473795469944705
5.086101793211704e-05 -3.0570751913665707e-06 -6.175371572396721e-05 -5.60270884351548e-05 0.0001451916118543185 2.118486707089696e-05 -9.525204553970013e-06 9.575566628757743e-06
-0.00020413865403261694 0.00020131450161819847 -5.376994461986046e-05 7.662367128473779e-05 -3.3093915866213825e-05 7.185953782821608e-05 0.00017942584091630524 -1.8451022714275885e-05
8.754888556626334e-05 -9.534070769841626e-05 0.00017850673549703628 -1.2359068187362894e-05 -5.8617149579788695e-06 5.4860195259547314e-05 -4.3389904413395575e-05 -8.138064538746498e-05
-0.00020417334408624887 -7.169940831569199e-05 2.9824237188976816e-06 4.416556585016951e-05 3.620603190284742e-05 0.00011542268605147178 0.00018710614465187303 -0.0001917416111903952
00000000: 3630 269d 8abe 7ebf eaa1 f44f 56da 903f
00000010: c31a 7adb 6e19 a43f 40a1 76a8 5271 92bf
00000020: a9f9 28d7 5c1a 993f 87fc dc7a be71 873f
00000030: bdda a9b9 08fd 8ebf 8e27 9895 0328 a3bf
00000040: 68ab 31ac cab3 96bf 8bb4 2eca ae55 8cbf
00000050: 08da 1080 95a1 62bf 1f85 429c f9ce 94bf
00000060: 1f06 6d2d e365 adbf b5a9 fd72 18ea aa3f
00000070: b0b5 8663 5c80 a8bf 3021 7fba c3c3 8dbf
00000080: b4ad 77b9 0410 343f 2255 3605 1c78 ae3f
00000090: a682 b7f1 aa19 a8bf 9ad2 c084 39a8 51bf
000000a0: 190a 9e5c b8a1 acbf 725d 2d8b 358e a7bf
000000b0: 5522 81eb d0e7 b6bf 78bb 0ba8 66ef 8b3f
000000c0: 08f6 3ebf 9d30 973f 3085 11b1 38ad 89bf
000000d0: 5e15 ebb7 ba97 89bf ccd0 c12b 8266 943f
000000e0: 83b1 8afc 9477 b0bf 3446 8770 68a2 9c3f
000000f0: 6c16 8412 0b9c 8ebf e93b ad2c 42d7 a8bf
00000100: e866 4035 17e1 9dbf 5278 beed 1fb0 a53f
00000110: 2499 13d7 1545 a93f f60c 1bff 7fc4 97bf
00000120: 1f16 4572 ee04 a8bf 337c 11a5 de42 6b3f
00000130: d3d1 ef23 ef1c 903f 39df 42b9 a238 613f
00000140: 3dd1 2a32 9201 953f 4f52 24ba 1181 aebf
00000150: 4e1f 382f c2bb 6cbf c77f ff88 4878 66bf
00000160: 4df9 8939 710a 8ebf 6fca 3df1 bc2c 823f
00000170: bff6 ef44 6e08 a1bf c65d d3ee 7ba5 a8bf
00000180: f943 6a94 5587 823f 4969 60ae 67e8 99bf
00000190: c010 4e03 e02b 91bf 4fc9 adb7 e83f 9b3f
000001a0: ecfd 265a 9a29 a4bf 3079 4ed4 b248 b1bf
000001b0: b54d b975 dc22 a1bf f882 5e4c 087b 9bbf
000001c0: f4e0 9ab0 2d56 a6bf 4080 b19b 41d6 9ebf
000001d0: d1d4 0d63 26f8 b3bf 045f efa6 b952 8b3f
000001e0: 47c5 49dc 76a6 a0bf eadc f44a 4c1d 8fbf
000001f0: 3bfe beb2 94e6 793f 5275 ab03 0c5f b0bf
00000200: e62a be5a 1c1a adbf 3523 6d42 1658 a53f
00000210: 38ba c0fb ecba 913f 5437 a943 2ada 65bf
00000220: f64b 81ec 3540 973f 11f8 3382 75bb a23f
00000230: 542c 3f7b 4af7 7dbf 4642 6676 7ef2 753f
00000240: 3050 aa00 c1f7 a3bf 74e5 6f4c 662e b0bf
00000250: e400 c7c7 ff8b 82bf 181f 622b d713 993f
00000260: 1cd9 d485 cd8d b4bf 64db ada4 6a14 a1bf
00000270: 8b3c 3d6e 00c8 b1bf b151 be03 74ba 99bf
00000280: 62d2 a521 426c 753f e5ad 384f ff22 9f3f
00000290: 3e79 d9ea caef 72bf 4867 9531 fa94 953f
000002a0: 81a5 f0ff b5d6 a0bf aca2 869d 6b8d 9c3f
000002b0: 4f6f 9d05 ed14 b2bf 1e60 437d 9a55 98bf
000002c0: c17b a131 a850 9ebf 8c81 ec96 6c17 a73f
000002d0: 6312 c8a9 182e 87bf 4579 fda0 7018 99bf
000002e0: 25fd cdd1 bc2d b2bf 514a 019e 4a09 813f
000002f0: 6c75 9b51 feaf a43f 57a0 ba76 4f48 87bf
00000300: 2d28 b97b 4580 9fbf c7c6 ce50 b66d 923f
00000310: 6758 f4b1 1f50 953f 153b e959 7600 9d3f
00000320: 1bb9 b64d 54b1 a83f 7d95 bd97 88a9 a73f
00000330: 7d58 f507 f91a 85bf 52c8 b06e 6b7c 8a3f
00000340: c185 c1d4 22e6 7dbf 7d1e 644a 603f 94bf
00000350: 7943 b993 ed08 7dbf 52fe a815 7593 8a3f
00000360: d89f 5af2 ce03 b6bf b304 e118 bd7d a6bf
00000370: fbc9 8637 4fe8 b0bf eca5 7962 b11f a23f
00000380: d68f b9e1 19ce 723f 7d6b a924 c0e1 9a3f
00000390: 4be7 7bfa 4cb8 a03f 69dc 63a2 2c2c 893f
000003a0: 2b3a dcb5 d45c b1bf 86db 7424 6b50 aa3f
000003b0: 12bc 0dc4 8d5c 94bf 427a 0a60 1214 9abf
000003c0: 991e 3b3c 1d25 a13f c40e a3c5 3ad0 933f
000003d0: 7d77 1eb5 0a14 b1bf a239 be8c 3e6e 953f
000003e0: 5800 3bca 2aa1 9cbf 7520 bb24 0ade 973f
000003f0: d809 7edb df10 643f 80ec 8653 46f2 84bf
00000400: 8017 8255 1efb 89bf c1b6 13fc 1ca5 903f
00000410: 5a6d 961d d340 b23f e4ed 397d a9b4 aa3f
00000420: f923 8c55 d090 b03f 8b99 ff7c 7ba3 9b3f
00000430: f554 a50f 1cca ab3f 26a6 622b ca52 ac3f
00000440: a834 8b4f ca31 a53f 87f2 ecdc 3d86 a4bf
00000450: 9105 9092 8c4f b03f 87b7 9d8d 7b27 a03f
00000460: f55e ef74 95f2 9cbf eed5 2c75 dfbc a9bf
00000470: 0260 a3cf cee8 b5bf 65ff a27c eaaf a13f
00000480: 25d6 d9ad 7829 a43f 7f00 d384 7a55 a03f
00000490: 4dea 3cf6 faca b33f ac03 2af0 da1c a6bf
000004a0: d3cb 600c 9df9 b9bf 67bd fcad 08d1 92bf
000004b0: 508a dce2 de9c a1bf cf84 256d 15eb 973f
000004c0: 8dbe 2e6f cdba a53f a958 acb7 4cfa 8e3f
000004d0: 4a33 a421 12c4 92bf 70b5 9cd4 098e a63f
000004e0: 9465 33bb 1440 a3bf b272 7933 da1d b43f
000004f0: 5649 bfe4 a630 b7bf db56 a725 5b17 96bf
00000500: 9aa9 50b4 b964 b93f 8b3e 6574 5ebc 8d3f
00000510: 785b c3c3 076b ac3f 9a62 ef15 a853 ab3f
00000520: 6567 9bc1 9064 b23f 8a3a 4d4a 6828 b23f
00000530: babb 59fc 632f b83f f323 7126 4fcb a73f
00000540: d655 3c8b 6c0d 9c3f 1247 6861 dac5 b4bf
00000550: 18f2 6434 a324 b33f 7478 62d8 351b b23f
00000560: 24f3 39c9 e2f0 b0bf 2810 51f1 6b7b abbf
00000570: 2b72 5fb8 03f4 b3bf ed66 38ef 612e b13f
00000580: e2d1 fd8c 9cef b93f 5b1e cf23 316b a03f
00000590: 5926 13a4 338e ae3f 0913 ce40 0a0a 963f
000005a0: 4bfa dd13 f442 a6bf 499e dd0a 992d b23f
000005b0: c66e 0df8 4834 b7bf 6bb8 63d6 c6f6 833f
000005c0: 9c0f 3651 213b 9f3f 91cc 7353 e337 b83f
000005d0: a3d3 1083 c6c0 87bf 52c4 42c2 840e 9f3f
000005e0: 569a 9597 cdc8 aabf 002f db12 0bb3 b73f
000005f0: 36ed 258a e6d3 b3bf d889 e2b5 a173 b6bf
00000600: f3c4 e9cd 3d45 c13f a739 43a3 c1c9 8d3f
00000610: c1f8 92bb 352c a83f 988b f193 a8a0 b93f
00000620: 1957 870d ac34 b53f c928 e310 0257 a33f
00000630: 8aab 0b4c 5cdb b43f 8a54 1a5d 5c0c a83f
00000640: 3ede d0e5 c536 b63f a353 bca6 788e 9dbf
00000650: dbfc 6933 cfdc a33f 9fa7 aabf dbc9 bb3f
00000660: c2f3 a893 10f2 9dbf 76ae 3c17 8328 a7bf
00000670: c648 f918 7e3c b1bf f2a8 de26 2096 b73f
00000680: cf40 b1ee 13d0 bc3f d4fa 3164 db4f a93f
00000690: bbb4 6fbc 3ab9 bb3f dbef 9f71 2205 b0bf
000006a0: 3a7b 1955 6845 bdbf 9973 f874 0d19 b33f
000006b0: 14b7 3720 05ef acbf d834 a101 5b51 b53f
000006c0: 0053 b540 07b5 b63f a305 d463 9043 ab3f
000006d0: 27ee 3388 6bc1 aabf eeb1 d985 e2d4 b73f
000006e0: 03a4 1f96 e530 a9bf c577 890c efa0 b23f
000006f0: c6a9 52a6 e985 b4bf 52e7 9ddb 6bf6 aebf
00000700: 1a62 ef44 73aa 0a3f e474 25dc 04a5 c9be
00000710: f2cc fcc1 3830 10bf c69b a319 d45f 0dbf
00000720: c78d fa72 d207 233f 9262 d6fa c436 f63e
00000730: 32c6 3f25 cef9 e3be fb44 3adb d714 e43e
00000740: aa26 93af c1c1 2abf ddff bc66 fe62 2a3f
00000750: 2ede ac3a e130 0cbf 166d 29a6 2016 143f
00000760: d3a7 6d4a ca59 01bf e18a a275 69d6 123f
00000770: ed69 d23c 8884 273f 109e 4ca0 e858 f3be
00000780: 403b b766 4ef3 163f ebf4 dbe2 34fe 18bf
00000790: 7172 a12e b165 273f 1782 c665 39eb e9be
000007a0: d605 52f0 f795 d8be 5a2f b8f4 35c3 0c3f
000007b0: a6e7 71c3 b1bf 06bf 198a 84d7 5c55 15bf
000007c0: 313a cfab ebc2 2abf 124f 9774 aacb 12bf
000007d0: 4eb5 68c7 b404 c93e 1bb7 9849 cd27 073f
000007e0: 2d1d 95c8 7dfb 023f a5e0 b0a5 e241 1e3f
000007f0: fa9c 588b 3d86 283f 6f8f 10e6 c721 29bf

bias f8 [32]
0.10736694979911793 -0.0357059704493206 0.06894854236764814 0.013087824730606504 0.06161709819636871 0.06339017687733826 0.06386382177521559 0.01637081339284964
0.0695803799995433 0.03995949391713272 0.07022682322423468 0.08316790198253379 0.051569327141634175 0.04566421699193593 0.04089335692510813 0.07504355841028187
0.06918612863118824 0.019440478238537912 0.0832001136670821 0.02209774199703359 0.06761726922455216 0.0014195050013062673 0.05527735281296939 0.05782621499550533
0.05876402204650413 0.06675880974051575 0.03325326384338266 0.03359521266213765 0.05324090044368341 0.05917711652998846 0.037577900426876656 0.03474665708097413
00000000: e4f8 0e82 667c bb3f c61b b48e 0d48 a2bf
00000010: 706f 9396 9ca6 b13f e8c4 8c19 cacd 8a3f
00000020: 2c72 41bb 468c af3f 2769 93b0 563a b03f
00000030: 4b10 ec21 6159 b03f 645b 86b0 82c3 903f
00000040: 0b92 8a10 05d0 b13f 11dd 131f 9275 a43f
00000050: d0d0 0c95 62fa b13f d287 17db 7d4a b53f
00000060: 5c9f 197b 4b67 aa3f 04d7 27dd 4c61 a73f
00000070: b5e6 3b5d f9ef a43f d8ca 25fd 0d36 b33f
00000080: 29cc ce9f 2eb6 b13f e531 0369 34e8 933f
00000090: de3d 3947 9a4c b53f 7654 c55c caa0 963f
000000a0: fada f687 5d4f b13f d8d5 a7e3 d541 573f
000000b0: 8c12 152d 504d ac3f 80aa 83cc 659b ad3f
000000c0: 7408 be61 5116 ae3f c92e 8ef8 1a17 b13f
000000d0: de9a 6261 9206 a13f 7641 5f47 6433 a13f
000000e0: 4930 6e2c 6442 ab3f 8ef4 5588 764c ae3f
000000f0: ea84 c51a 693d a33f b0c0 9d57 50ca a13f

weight f8 [3, 32]
0.09636469260173684 0.09120611060188645 0.11909608143279327 0.008588993324246105 0.16129043884166838 0.13345100181252909 0.03359019875194883 0.1279815360358975
0.08492690616481365 -0.21657954365746473 0.17638857552582518 0.03503082517566335 -0.1518825978428598 -0.22751762524454497 -0.07816075662964936 0.2077897129308604
0.0040968923690958975 -0.04499707077844135 0.05441184506185923 -0.057136653739308915 0.05751522705932155 0.20753381201951562 -0.05419886460050763 0.22158808687567888
0.18345432873595724 0.08264079128473321 -0.15739511195344805 0.062155666507031034 -0.20017305466541988 0.21131116785138196 0.034157525834638144 -0.19583411307134396
0.05352253080777366 -0.04992615890386237 0.11206565333316484 0.1593869344677239 0.12402687635831229 0.14470494720440236 0.23136691826139183 0.0340707324693898
0.05241392615060632 0.04388306380820882 -0.09803596528340154 0.05562701652970123 -0.21727236657054683 0.03668706446383645 -0.001692108402298824 -0.003399254439798151
0.20813430813041417 0.12474726274671023 0.002624688087504162 0.03358280288883788 -0.18311445713999777 0.07845120793343507 -0.24501564579702406 0.06613617774064286
0.21941887869812274 0.2085361956541521 -0.17063732754772373 0.10577164155471014 -0.08446135730990766 0.045650756577604645 -0.08529805171255561 0.05359123541248049
0.12851693371024434 -0.1880267858757619 0.07645985164639378 -0.024720571854346604 0.11654006737311541 0.15796675249136113 0.06391963809714533 0.04948197682178326
0.22147852872103593 -0.16011339815145442 0.21807766042955457 0.20963799957039145 -0.12458737466948837 0.016837961656047586 -0.15085880020949233 0.16112910954149606
-0.02774829149102069 0.10063325162326686 0.21127322876451782 -0.16570844009354757 -0.09253583613268011 -0.11347184095799541 -0.09604670359259833 0.20861172625317587
0.013013953789731964 0.14333962945004763 0.09236022962168305 0.09471702202053084 0.11872556820075975 0.053327808196231334 -0.20494928905003537 -0.10611507734518136
00000000: 67ab 3643 5bab b83f 81ff 3a9e 4859 b73f
00000010: e0e9 d5ae 147d be3f 3831 772b 1b97 813f
00000020: 0cc1 fd43 2aa5 c43f ab9d 3324 ec14 c13f
00000030: 3526 360a bc32 a13f 1d0d e2ef b261 c03f
00000040: fd40 870c c5bd b53f b2e6 7ee4 e0b8 cbbf
00000050: b7be a29d e693 c63f cf75 f670 8fef a13f
00000060: 7286 4893 e370 c3bf 072e d82b 4c1f cdbf
00000070: ce11 8ee5 5702 b4bf eadb bd72 da98 ca3f
00000080: 5015 d92b e7c7 703f 0a83 d126 db09 a7bf
00000090: 4d85 1c8e dedb ab3f 9629 6df6 0341 adbf
000000a0: 40cd 7bc6 a272 ad3f 6911 b8cb 7790 ca3f
000000b0: c407 e11d f4bf abbf 4439 2899 ff5c cc3f
000000c0: 4c83 1d73 6e7b c73f 772c e267 f227 b53f
000000d0: f1f5 31e5 8525 c4bf b94b d115 ded2 af3f
000000e0: f708 aa49 459f c9bf a1c2 998d 3e0c cb3f
000000f0: ce7c be60 187d a13f 4292 8a9b 1711 c9bf
00000100: eb4a d61e 4e67 ab3f 58fa 69e7 eb8f a9bf
00000110: 0621 12ac 55b0 bc3f b86a 7983 ca66 c43f
00000120: 5db3 c8b1 39c0 bf3f eef9 e713 b185 c23f
00000130: c28c a761 6e9d cd3f f8e0 6913 b871 a13f
00000140: eaf7 5785 ffd5 aa3f 9e1f cf47 d777 a63f
00000150: 2158 b990 e218 b9bf dcc9 89f1 247b ac3f
00000160: e45c 5fb6 94cf cbbf 66e9 1d9c a5c8 a23f
00000170: e03d f28f 37b9 5bbf ea78 cad4 c0d8 6bbf
00000180: 6a40 4c1f 25a4 ca3f 593c c3c5 6fef bf3f
00000190: 0cdf efaf 5e80 653f 632c 3be0 c331 a13f
000001a0: a5a8 6b66 4b70 c7bf 78e2 67dc 6015 b43f
000001b0: d86f da34 ac5c cfbf 417f 7af0 4cee b03f
000001c0: 2d14 11f6 ea15 cc3f a2f4 2e66 50b1 ca3f
000001d0: 0fac a5a6 71d7 c5bf e45b 52ad d913 bb3f
000001e0: a7fc 6b6f 429f b5bf 30b2 1335 895f a73f
000001f0: ec97 84d6 17d6 b5bf 75ce e576 4f70 ab3f
00000200: f943 a22d 3e73 c03f cbdf 0d00 4311 c8bf
00000210: e73c 4772 df92 b33f 3c81 9c7e 5950 99bf
00000220: f189 0ae2 91d5 bd3f eb21 e729 4138 c43f
00000230: 8b0b 3393 095d b03f 54c9 61a0 b355 a93f
00000240: f9bf cf8e 6859 cc3f 5020 5b88 987e c4bf
00000250: 9c3d c401 f8e9 cb3f 39ac 1300 6bd5 ca3f
00000260: 0330 b34b f5e4 bfbf a77b 937a f83d 913f
00000270: 2e56 9b56 574f c3bf ac08 f5ef e09f c43f
00000280: 2c2e e551 0c6a 9cbf a0b0 9ccc 19c3 b93f
00000290: e02e 084c 000b cb3f 38bd 6f25 ef35 c5bf
000002a0: 37db e5b5 6db0 b7bf 0577 ee95 7d0c bdbf
000002b0: e59d d14a 8496 b8bf 36e5 e8fe c9b3 ca3f
000002c0: dd32 594f 0fa7 8a3f 1cb7 5af6 f358 c23f
000002d0: 141a ad85 eba4 b73f 9ce3 f3ef 5f3f b83f
000002e0: 400c 9f80 cc64 be3f 1721 5750 c84d ab3f
000002f0: 1b78 e73e c73b cabf 6260 cf92 5b2a bbbf

bias f8 [3]
-0.0048079029952439985 -0.005233071420939424 -0.03808124029473539
00000000: 5dd6 07a2 73b1 73bf fbe1 c4e9 456f 75bf
00000010: 1463 5063 627f a3bf
